backend/unihack-network/75network.pth (torch, 2463 bytes, 4 tensors)

weight f4 [12, 4]
0.7620742 0.44116977 0.25449303 0.6755882 0.18147093 -1.6599003 -1.6103909 -1.6201689
-1.0574992 0.72370636 0.47076222 -0.83655834 -1.8011247 -2.1646302 -0.8166799 -0.1334026
-1.0987669 -0.4615741 0.38334507 -3.0616577 -3.7441502 -0.7819629 -1.8011718 -1.2387304
-1.3950324 -0.37809023 0.07842515 0.24447818 -2.3093643 -1.7478188 -2.1473446 -1.5373349
0.20564802 -0.827008 -2.134609 -0.6522699 -2.4608657 -0.017106337 -0.06489832 -2.8516293
-0.6055996 -0.5789509 -0.4538019 -5.4971857 -1.5881927 1.0972829 1.8937687 0.7069015
00000000: 4b17 433f 01e1 e13e e94c 823e 59f3 2c3f
00000010: 84d3 393e 9d77 d4bf 4a21 cebf b261 cfbf
00000020: 225c 87bf d244 393f bf07 f13e b028 56bf
00000030: 418b e6bf 4d89 0ac0 ef11 51bf b19a 08be
00000040: 65a4 8cbf 7153 ecbe ce45 c43e 33f2 43c0
00000050: 28a0 6fc0 b82e 48bf cc8c e6bf b88e 9ebf
00000060: 6c90 b2bf 0b95 c1be 5d9d a03d 7d58 7a3e
00000070: a0cc 13c0 87b8 dfbf 186e 09c0 64c7 c4bf
00000080: 6595 523e ccb6 53bf 6f9d 08c0 29fb 26bf
00000090: d37e 1dc0 9722 8cbc 69e9 84bd 1881 36c0
000000a0: 9308 1bbf 2036 14bf b958 e8be f2e8 afc0
000000b0: e649 cbbf c473 8c3f 0367 f23f 7ff7 343f

bias f4 [12]
0.4675956 0.18512353 0.45825467 -0.6507747 0.16029897 -0.48393375 0.6840395 0.047577675
0.6720399 -0.51685184 -0.007403677 0.7699318
00000000: b168 ef3e 0691 3d3e 5ba0 ea3e 2c99 26bf
00000010: 6a25 243e 2ac6 f7be 361d 2f3f cfe0 423d
00000020: cf0a 2c3f 6750 04bf 8b9a f2bb 401a 453f

weight f4 [2, 12]
-0.631082 -2.0659735 -0.2578039 1.0000898 -0.13287352 -1.6423017 -1.0745269 1.1811501
1.1845617 -1.7537031 0.42213055 -1.0912727 -1.537757 0.88962716 0.1500102 -0.9221454
-0.11480961 -0.37219638 0.36619237 0.30197212 -1.2721573 -1.6288092 -0.029662156 -1.2259583
00000000: 978e 21bf e938 04c0 dffe 83be f102 803f
00000010: ff0f 08be f136 d2bf 198a 89bf ed2f 973f
00000020: b89f 973f 5879 e0bf 7f21 d83e d3ae 8bbf
00000030: 39d5 c4bf 9bbe 633f 469c 193e b911 6cbf
00000040: 4d21 ebbd 8690 bebe 917d bb3e 179c 9a3e
00000050: 0dd6 a2bf d27c d0bf 0dfe f2bc 34ec 9cbf

bias f4 [2]
-0.44139734 -0.24291433
00000000: d5fe e1be 89be 78be
