backend/unihack-network/87.5network.pth (torch, 2463 bytes, 4 tensors)

weight f4 [12, 4]
00000000: ae99 24c0 88e7 93bf e68d f9bf 256f 1cc0
00000010: 70ae 7a3f 1788 ff3d b2db 2bbf 4226 8e3d
00000020: 90e9 92c0 1a64 9abf f3ae 163e a601 b3be
00000030: 8399 9ebf 1ca3 f6bf c442 88bf 2e0b abbe
00000040: 9940 943f ca56 993d 43e2 303f 803e 6dbc
00000050: 9c6d b0bf 4857 d13b 934c b13f a1b2 943d
00000060: 2963 833f 0795 433f ae26 113f a3cb 933e
00000070: 9ea7 07c0 6720 aebf 8101 8fbf 133c 32c0
00000080: ba4d af3e 06cc a6be ab68 67be 9dec 0c3e
00000090: 1325 763f 0d7e 4cbe cfda fcbf e7bc 1cbe
000000a0: 5349 abbf a86e dabf c823 04c0 7672 d0bf
000000b0: cd74 83c0 bcfc 11be e9c9 8440 37cb 30bd
-2.5718799 -1.1555033 -1.9496429 -2.4442837 0.9792242 0.12477129 -0.67132103 0.06940891
-4.591011 -1.2061799 0.14715175 -0.34962195 -1.2390598 -1.9268527 -1.0645375 -0.33406967
1.1582214 0.07487257 0.6909525 -0.014480233 -1.378345 0.0063885786 1.3851494 0.07260633
1.0264636 0.7639927 0.56699646 0.288663 -2.1196055 -1.3603638 -1.1172334 -2.7849166
0.34238988 -0.32577533 -0.22598521 0.13762136 0.9615032 -0.1996996 -1.9754275 -0.15306436
-1.3381752 -1.706502 -2.064684 -1.6284931 -4.108008 -0.14256567 4.149647 -0.04316255

bias f4 [12]
00000000: adb3 febd 7092 403f 4166 73bf c79a 6ebf
00000010: e67e b13f 8541 58be ee65 a43f 3d14 91bf
00000020: 0928 123c 85ed d13e e122 8ebf edcf 71be
-0.12436614 0.75223446 -0.950779 -0.9320492 1.3866851 -0.21118744 1.2843606 -1.1334301
0.008920678 0.41001526 -1.1104394 -0.23614474

weight f4 [2, 12]
00000000: 978e 7e3f cf8c b9bf aceb febf 1283 70bf
00000010: 129a 35bf 215b ef3d a4ff ffbf ff30 17c0
00000020: d8df 393d bffd b1be 46c3 273e 40be d8bf
00000030: 8cde 243f 1604 9dbe bf7c 63bf 8a23 1cbe
00000040: c29a b2bf 27f8 f0be 7a3e 86bf 0240 eebf
00000050: 14aa 3abd 37b2 14be f81e 82bf 141c b33e
0.99436325 -1.4496096 -1.9915671 -0.9395 -0.7093822 0.11687303 -1.999989 -2.3623655
0.04537949 -0.34763905 0.16383085 -1.693306 0.6440208 -0.3066718 -0.8886222 -0.15247932
-1.3953478 -0.47064325 -1.0487816 -1.8613284 -0.045572355 -0.14521109 -1.0165701 0.3498236

bias f4 [2]
00000000: 4698 ebbe 1850 3fbf
-0.46014613 -0.7473159
