backend/unihack-network/network.pth (torch, 2719 bytes, 4 tensors)

weight f4 [20, 4]
00000000: dc11 a83e a646 ed40 361a cf40 6510 9340
00000010: 2c27 16c0 f715 43c0 f71c 8ac0 3e45 b8c0
00000020: a5bc 1540 c726 d040 6386 7a40 58fb 0d41
00000030: 1a14 633f b9ed ce3d 5ca1 30c1 0c73 8ec1
00000040: 0ec0 ca41 e3f0 cb40 bc0e bb41 892a f740
00000050: bf57 91c0 ce87 99bf 85e5 e0c0 9b08 aac0
00000060: d875 8540 0186 e340 601b dfbe b656 ec40
00000070: 2abc 7440 8359 a140 b551 b640 4501 a740
00000080: 7a3f ed3f bc09 1d40 935b d73f b118 2640
00000090: 6955 3ec1 2be5 10c1 98c2 61c1 d303 26c1
000000a0: aaa3 5c41 0e86 7241 6adc 42be 4933 5341
000000b0: 3396 b5c0 3b40 e8c0 0f3f 98c0 d2dd 08c1
000000c0: a853 0d41 9255 b340 803b 0a41 3fb4 c340
000000d0: e629 aa40 69b7 6f40 c74f a140 0f0d ba40
000000e0: 10ca 28c1 66dc b8c0 8a27 39c1 f616 64c1
000000f0: 3b67 8140 b38a 9b40 1ef6 4840 1149 8c40
00000100: d6bc 3f43 5117 a93f 376b 41c3 b80b 40c0
00000110: 4f9a 58c1 289b 74c0 c017 6bc1 d12a 33c1
00000120: 9baf a741 40ee c240 9bf6 b141 990f 7841
00000130: 4920 ebbe c4c5 1141 889a 2641 ae00 8041
0.32826126 7.414874 6.4719496 4.5957513 -2.3461409 -3.0482156 -4.3160357 -5.7584524
2.339639 6.5047336 3.9144523 8.873863 0.8870255 0.10103936 -11.039394 -17.806175
25.343777 6.373155 23.382195 7.7239423 -4.541961 -1.1994569 -7.0280175 -5.3135505
4.170635 7.110108 -0.43575573 7.385585 3.8239846 5.0421767 5.697474 5.218905
1.8534997 2.4537191 1.6824821 2.595257 -11.895852 -9.055949 -14.110008 -10.375934
13.789957 15.157728 -0.19029394 13.200021 -5.674585 -7.2578406 -4.7576976 -8.554155
8.832924 5.6041956 8.639526 6.1157527 5.3176146 3.7455695 5.0409884 5.814094
-10.549332 -5.776904 -11.572153 -14.255606 4.0438514 4.860681 3.1400218 4.3839192
191.73764 1.3210241 -193.41881 -3.0007153 -13.537673 -3.82197 -14.693298 -11.197953
20.960745 6.0915833 22.245413 15.503808 -0.4592307 9.110783 10.412727 16.000332

bias f4 [20]
00000000: c1c4 0641 2e99 08c1 b503 fb40 f8df 1cc1
00000010: 5327 e540 4901 08c1 aab0 0f41 dab9 0e41
00000020: f646 0f41 0ffd dbc0 3211 1541 e0f4 f1c0
00000030: c5b4 fa40 3c01 0341 48ec eac0 7646 0341
00000040: 7718 0241 0490 eac0 4c46 d140 16c6 0441
8.423036 -8.537397 7.8442025 -9.80468 7.1610503 -8.500314 8.980631 8.920374
8.954824 -6.874641 9.316698 -7.561142 7.8345666 8.187801 -7.341343 8.204702
8.130973 -7.33008 6.539831 8.298361

weight f4 [2, 20]
00000000: 905e 53be 1147 3d3f 4119 343f 2bb2 9d3e
00000010: 1b7b 4f3c a7e6 933e beb5 8c3e 4a9a 813f
00000020: 6cf4 873e aaba f13c 8917 403d cf0a c3bf
00000030: 670b d9bf a32c 76bf 8db2 c7bf 302c 29be
00000040: db6c 7e3f 3813 7ebe c261 fabc e064 1bbe
00000050: 301e 583c b8bf 80bf 1568 153e afd1 06be
00000060: 8794 813d 9a29 87be 3c84 a4be d696 18bf
00000070: 5e7a 563f a255 d4bc a7d5 00bf 7007 16bf
00000080: c84e fbbe 2108 33be 3078 8d3f 2fd9 7e3f
00000090: 281c 79be a6aa b6bd 5ba9 0d3e 6d3c fabd
-0.20641541 0.73936564 0.70351034 0.30799994 0.012663628 0.2888691 0.27482408 1.012521
0.26553667 0.029507954 0.046897445 -1.5237674 -1.6956605 -0.9616186 -1.5601364 -0.16520762
0.9938485 -0.24812019 -0.030564193 -0.151752 0.013190791 -1.0058508 0.14590485 -0.13165925
0.063271575 -0.26398927 -0.32132137 -0.5960516 0.8378047 -0.02591974 -0.5032601 -0.586051
-0.49083543 -0.1748357 1.1052303 0.99550146 -0.24327147 -0.08919267 0.13834135 -0.122185566

bias f4 [2]
00000000: a9e6 64bf 5ee0 a1bf
-0.8941446 -1.2646596
