backend/unihack-network/network.pth (torch, 2463 bytes, 4 tensors)

weight f4 [12, 4]
000000 d9 5f 10 c1 78 72 14 c0 50 3a 05 c1 f6 5a e9 c0
       -9.0234 -2.3194866 -8.326736 -7.2923536
000010 d7 58 c5 40 4b fb 6c 40 78 73 8d 40 da 78 d3 40
       6.1670947 3.7028377 4.4203453 6.6085024
000020 1d 3e eb c0 a8 d7 0f c1 ff bc da c0 b6 fd 03 c1
       -7.351332 -8.99015 -6.835571 -8.249441
000030 3c 3f 32 c1 67 1d 19 c1 b5 64 28 c0 bc ca 62 bf
       -11.140438 -9.569678 -2.6311467 -0.885906
000040 c9 b7 2b 40 59 45 a8 c1 11 ad 03 c1 f8 07 34 3f
       2.6830924 -21.033861 -8.229753 0.7032466
000050 fc 67 b1 40 da 64 2c 41 86 41 23 40 c8 89 79 be
       5.5439434 10.774622 2.5508742 -0.24368966
000060 ee dd 8a 41 16 64 9a 3f c3 b5 4a 41 a3 2e 8f 41
       17.358364 1.2061794 12.669375 17.897772
000070 6a 34 d9 3e 2b 4b 95 40 07 b7 6e c0 44 c3 61 41
       0.424228 4.665426 -3.729921 14.110172
000080 0e be 4f bf a6 80 7d c0 69 a5 80 41 57 dc 86 3f
       -0.81149375 -3.960977 16.080767 1.0535992
000090 5e 03 35 41 e9 34 e2 40 2b 2f e2 3f 91 11 55 bf
       11.313322 7.0689588 1.7670645 -0.8322993
0000a0 87 e3 64 40 51 ea eb 40 05 10 6b 40 f3 36 39 40
       3.5763872 7.372353 3.6728528 2.8939788
0000b0 92 6c 21 42 a4 0a e9 3e ab d9 22 c2 5a 9a 2a 3f
       40.356026 0.4551593 -40.712566 0.6664177

bias f4 [12]
000000 42 32 f6 c0 f3 4a 02 41 1e f9 f7 c0 50 8b 8a bf
       -7.693635 8.143298 -7.74916 -1.0823765
000010 e0 69 26 c1 c5 e6 05 41 e5 be 37 40 68 f8 1f 41
       -10.400848 8.36884 2.8710263 9.998146
000020 56 a6 eb 40 db 87 c5 40 d9 ed f8 40 e1 cd 07 40
       7.3640547 6.172834 7.779034 2.1219409

weight f4 [2, 12]
000000 bd 56 c3 be 1d a2 10 3f 9d 7a 88 3f 28 a4 d1 bd
       -0.38152114 0.56497365 1.0662419 -0.102363884
000010 10 c8 d0 bc 05 d1 c5 3e e6 02 81 bd 3d 6c 36 3e
       -0.025486022 0.38636032 -0.06299381 0.17814727
000020 47 49 78 bc 31 7b 65 be 4f 63 f1 3e 3f dc 7f 3f
       -0.015154189 -0.22410275 0.4714608 0.99945444
000030 5c 98 fa bc 05 79 dd 3d 91 bc 8f bf 66 f8 e2 3c
       -0.030590229 0.10814098 -1.1229421 0.027706336
000040 61 5a 5a 3e 25 db 7e 3f ee e5 9e be 11 a8 6f be
       0.2132354 0.9955314 -0.31034797 -0.23403956
000050 c8 e5 30 3d 54 da 13 bf 6a 85 78 be 94 42 06 be
       0.043187886 -0.5775502 -0.24269643 -0.13111335

bias f4 [2]
000000 29 69 3f bf 38 f2 47 bf
       -0.74769837 -0.7810397
