backend/unihack-network/network.pth (torch, 2335 bytes, 4 tensors)

weight f4 [8, 4]
000000 94 0b 12 bf 26 b3 16 c0 8c 7e 97 bf 77 c2 b4 bf
       -0.57048917 -2.3546844 -1.1835494 -1.4121846
000010 f7 c1 3e c0 04 7d ce bf 60 0c d3 bf 16 eb a4 bf
       -2.9805887 -1.6131902 -1.6488152 -1.2884243
000020 10 b1 77 bd c2 f7 4c 3d 04 6e 11 c0 39 53 af bf
       -0.060471594 0.050040968 -2.2723398 -1.3697273
000030 c4 c2 12 be d8 1d 81 bf e8 0d 6d 3e f5 80 e5 bf
       -0.1433211 -1.0087233 0.23149836 -1.792998
000040 f5 5f 5f be f9 6f 60 be 3e 31 b5 bf 20 1d 47 bf
       -0.21813948 -0.21917714 -1.4155653 -0.77778816
000050 3c 78 c8 bf 02 8c 25 c0 72 75 30 bf 54 f7 6a bf
       -1.5661693 -2.5866704 -0.6892921 -0.9178364
000060 21 d5 a4 bf e2 41 31 3f a2 f7 00 c0 a2 60 24 c0
       -1.2877542 0.69241154 -2.0151143 -2.568398
000070 7e 2a 1d 3e 03 b5 98 3f ac 33 d4 be aa cc 59 bf
       0.1534824 1.193024 -0.41445673 -0.8507792

bias f4 [8]
000000 98 97 da 3d a0 16 0c 3d 18 c4 b0 be 00 28 cb bc
       0.106734455 0.034201264 -0.34524608 -0.024799347
000010 81 99 f8 3e 90 18 8b 3e 60 8c 12 3e 14 a9 35 3e
       0.48554614 0.27167177 0.14311361 0.1774028

weight f4 [2, 8]
000000 30 f7 a3 bf 58 94 63 3c 3c a8 0d bf 59 5a 8f 3f
       -1.2809811 0.013890348 -0.5533483 1.1199447
000010 f0 d5 ba bf c6 93 ab bf 8d b1 af be 4f 7a 25 c0
       -1.4596539 -1.3404472 -0.34315148 -2.5855901
000020 f0 be 89 3e 82 77 96 be 4f c1 2a 3f ec 41 d8 bf
       0.26903486 -0.29388052 0.66701216 -1.6895118
000030 e3 88 78 bf 40 d5 bd 3e 42 33 b4 3f fa e3 03 bf
       -0.9708387 0.3707676 1.4078143 -0.5151974

bias f4 [2]
000000 47 4c 58 bf f2 ee 44 3e
       -0.8449139 0.19231775
